…
          "height": 1000
        }
      },
      "source": [
        "device = torch.device(\"cuda\" if cuda else \"cpu\")\n",
        "print(device)\n",
        "model.to(device)"
      ],
      "execution_count": 0,
      "outputs": [
        {
          "output_type": "stream",
          "text": [
            "cuda\n"
          ],
          "name": "stdout"
        },
        {
          "output_type": "execute_result",
          "data": {
            "text/plain": [
              "MobileNetV2(\n",
              "  (layers): Sequential(\n",
              "    (0): CNN(\n",
              "      (0): Conv2d(3, 32, kernel_size=(3, 3), stride=(1, 1), padding=(1, 1), bias=False)\n",
              "      (1): BatchNorm2d(32, eps=1e-05, momentum=0.1, affine=True, track_running_stats=True)\n",
              "      (2): ReLU6(inplace=True)\n",
              "    )\n",
              "    (1): BottleNeck(\n",
              "      (layers): Sequential(\n",
              "        (0): Expansion(\n",
              "          (0): Conv2d(32, 32, kernel_size=(1, 1), stride=(1, 1), bias=False)\n",
              "          (1): BatchNorm2d(32, eps=1e-05, momentum=0.1, affine=True, track_running_stats=True)\n",
              "          (2): ReLU6(inplace=True)\n",
              "        )\n",
              "        (1): DepthwiseCNN(\n",
              "          (0): Conv2d(32, 32, kernel_size=(3, 3), stride=(1, 1), padding=(1, 1), groups=32, bias=False)\n",
              "          (1): BatchNorm2d(32, eps=1e-05, momentum=0.1, affine=True, track_running_stats=True)\n",
              "          (2): ReLU6(inplace=True)\n",
              "        )\n",
              "        (2): Projection(\n",
              "          (0): Conv2d(32, 16, kernel_size=(1, 1), stride=(1, 1), bias=False)\n",
              "          (1): BatchNorm2d(16, eps=1e-05, momentum=0.1, affine=True, track_running_stats=True)\n",
              "        )\n",
              "      )\n",
              "    )\n",
              "    (2): BottleNeck(\n",
              "      (layers): Sequential(\n",
              "        (0): Expansion(\n",
              "          (0): Conv2d(16, 48, kernel_size=(1, 1), stride=(1, 1), bias=False)\n",
              "          (1): BatchNorm2d(48, eps=1e-05, momentum=0.1, affine=True, track_running_stats=True)\n",
              "          (2): ReLU6(inplace=True)\n",
              "        )\n",
              "        (1): DepthwiseCNN(\n",
              "          (0): Conv2d(48, 48, kernel_size=(3, 3), stride=(2, 2), padding=(1, 1), groups=48, bias=False)\n",
              "          (1): BatchNorm2d(48, eps=1e-05, momentum=0.1, affine=True, track_running_stats=True)\n",
              "          (2): ReLU6(inplace=True)\n",
              "        )\n",
              "        (2): Projection(\n",
              "          (0): Conv2d(48, 24, kernel_size=(1, 1), stride=(1, 1), bias=False)\n",
              "          (1): BatchNorm2d(24, eps=1e-05, momentum=0.1, affine=True, track_running_stats=True)\n",
              "        )\n",
              "      )\n",
              "    )\n",
              "    (3): BottleNeck(\n",
              "      (layers): Sequential(\n",
              "        (0): Expansion(\n",
              "          (0): Conv2d(24, 72, kernel_size=(1, 1), stride=(1, 1), bias=False)\n",
              "          (1): BatchNorm2d(72, eps=1e-05, momentum=0.1, affine=True, track_running_stats=True)\n",
              "          (2): ReLU6(inplace=True)\n",
              "        )\n",
              "        (1): DepthwiseCNN(\n",
              "          (0): Conv2d(72, 72, kernel_size=(3, 3), stride=(1, 1), padding=(1, 1), groups=72, bias=False)\n",
              "          (1): BatchNorm2d(72, eps=1e-05, momentum=0.1, affine=True, track_running_stats=True)\n",
              "          (2): ReLU6(inplace=True)\n",
              "        )\n",
              "        (2): Projection(\n",
              "          (0): Conv2d(72, 24, kernel_size=(1, 1), stride=(1, 1), bias=False)\n",
              "          (1): BatchNorm2d(24, eps=1e-05, momentum=0.1, affine=True, track_running_stats=True)\n",
              "        )\n",
              "      )\n",
              "    )\n",
              "    (4): BottleNeck(\n",
              "      (layers): Sequential(\n",
              "        (0): Expansion(\n",
              "          (0): Conv2d(24, 72, kernel_size=(1, 1), stride=(1, 1), bias=False)\n",
              "          (1): BatchNorm2d(72, eps=1e-05, momentum=0.1, affine=True, track_running_stats=True)\n",
              "          (2): ReLU6(inplace=True)\n",
              "        )\n",
              "        (1): DepthwiseCNN(\n",
              "          (0): Conv2d(72, 72, kernel_size=(3, 3), stride=(1, 1), padding=(1, 1), groups=72, bias=False)\n",
              "          (1): BatchNorm2d(72, eps=1e-05, momentum=0.1, affine=True, track_running_stats=True)\n",
              "          (2): ReLU6(inplace=True)\n",
              "        )\n",
              "        (2): Projection(\n",
              "          (0): Conv2d(72, 32, kernel_size=(1, 1), stride=(1, 1), bias=False)\n",
              "          (1): BatchNorm2d(32, eps=1e-05, momentum=0.1, affine=True, track_running_stats=True)\n",
              "        )\n",
              "      )\n",
              "    )\n",
              "    (5): BottleNeck(\n",
              "      (layers): Sequential(\n",
              "        (0): Expansion(\n",
              "          (0): Conv2d(32, 96, kernel_size=(1, 1), stride=(1, 1), bias=False)\n",
              "          (1): BatchNorm2d(96, eps=1e-05, momentum=0.1, affine=True, track_running_stats=True)\n",
              "          (2): ReLU6(inplace=True)\n",
              "        )\n",
              "        (1): DepthwiseCNN(\n",
              "          (0): Conv2d(96, 96, kernel_size=(3, 3), stride=(1, 1), padding=(1, 1), groups=96, bias=False)\n",
              "          (1): BatchNorm2d(96, eps=1e-05, momentum=0.1, affine=True, track_running_stats=True)\n",
              "          (2): ReLU6(inplace=True)\n",
              "        )\n",
              "        (2): Projection(\n",
              "          (0): Conv2d(96, 32, kernel_size=(1, 1), stride=(1, 1), bias=False)\n",
              "          (1): BatchNorm2d(32, eps=1e-05, momentum=0.1, affine=True, track_running_stats=True)\n",
              "        )\n",
              "      )\n",
              "    )\n",
              "    (6): BottleNeck(\n",
              "      (layers): Sequential(\n",
              "        (0): Expansion(\n",
              "          (0): Conv2d(32, 96, kernel_size=(1, 1), stride=(1, 1), bias=False)\n",
              "          (1): BatchNorm2d(96, eps=1e-05, momentum=0.1, affine=True, track_running_stats=True)\n",
              "          (2): ReLU6(inplace=True)\n",
              "        )\n",
              "        (1): DepthwiseCNN(\n",
              "          (0): Conv2d(96, 96, kernel_size=(3, 3), stride=(1, 1), padding=(1, 1), groups=96, bias=False)\n",
              "          (1): BatchNorm2d(96, eps=1e-05, momentum=0.1, affine=True, track_running_stats=True)\n",
              "          (2): ReLU6(inplace=True)\n",
              "        )\n",
              "        (2): Projection(\n",
              "          (0): Conv2d(96, 32, kernel_size=(1, 1), stride=(1, 1), bias=False)\n",
              "          (1): BatchNorm2d(32, eps=1e-05, momentum=0.1, affine=True, track_running_stats=True)\n",
              "        )\n",
              "      )\n",
              "    )\n",
              "    (7): BottleNeck(\n",
              "      (layers): Sequential(\n",
              "        (0): Expansion(\n",
              "          (0): Conv2d(32, 96, kernel_size=(1, 1), stride=(1, 1), bias=False)\n",
              "          (1): BatchNorm2d(96, eps=1e-05, momentum=0.1, affine=True, track_running_stats=True)\n",
              "          (2): ReLU6(inplace=True)\n",
              "        )\n",
              "        (1): DepthwiseCNN(\n",
              "          (0): Conv2d(96, 96, kernel_size=(3, 3), stride=(2, 2), padding=(1, 1), groups=96, bias=False)\n",
              "          (1): BatchNorm2d(96, eps=1e-05, momentum=0.1, affine=True, track_running_stats=True)\n",
              "          (2): ReLU6(inplace=True)\n",
              "        )\n",
              "        (2): Projection(\n",
              "          (0): Conv2d(96, 64, kernel_size=(1, 1), stride=(1, 1), bias=False)\n",
              "          (1): BatchNorm2d(64, eps=1e-05, momentum=0.1, affine=True, track_running_stats=True)\n",
              "        )\n",
              "      )\n",
              "    )\n",
              "    (8): BottleNeck(\n",
              "      (layers): Sequential(\n",
              "        (0): Expansion(\n",
              "          (0): Conv2d(64, 192, kernel_size=(1, 1), stride=(1, 1), bias=False)\n",
              "          (1): BatchNorm2d(192, eps=1e-05, momentum=0.1, affine=True, track_running_stats=True)\n",
              "          (2): ReLU6(inplace=True)\n",
              "        )\n",
              "        (1): DepthwiseCNN(\n",
              "          (0): Conv2d(192, 192, kernel_size=(3, 3), stride=(1, 1), padding=(1, 1), groups=192, bias=False)\n",
              "          (1): BatchNorm2d(192, eps=1e-05, momentum=0.1, affine=True, track_running_stats=True)\n",
              "          (2): ReLU6(inplace=True)\n",
              "        )\n",
              "        (2): Projection(\n",
              "          (0): Conv2d(192, 64, kernel_size=(1, 1), stride=(1, 1), bias=False)\n",
              "          (1): BatchNorm2d(64, eps=1e-05, momentum=0.1, affine=True, track_running_stats=True)\n",
              "        )\n",
              "      )\n",
              "    )\n",
              "    (9): BottleNeck(\n",
              "      (layers): Sequential(\n",
              "        (0): Expansion(\n",
              "          (0): Conv2d(64, 192, kernel_size=(1, 1), stride=(1, 1), bias=False)\n",
              "          (1): BatchNorm2d(192, eps=1e-05, momentum=0.1, affine=True, track_running_stats=True)\n",
              "          (2): ReLU6(inplace=True)\n",
              "        )\n",
              "        (1): DepthwiseCNN(\n",
              "          (0): Conv2d(192, 192, kernel_size=(3, 3), stride=(1, 1), padding=(1, 1), groups=192, bias=False)\n",
              "          (1): BatchNorm2d(192, eps=1e-05, momentum=0.1, affine=True, track_running_stats=True)\n",
              "          (2): ReLU6(inplace=True)\n",
              "        )\n",
              "        (2): Projection(\n",
              "          (0): Conv2d(192, 64, kernel_size=(1, 1), stride=(1, 1), bias=False)\n",
              "          (1): BatchNorm2d(64, eps=1e-05, momentum=0.1, affine=True, track_running_stats=True)\n",
              "        )\n",
              "      )\n",
              "    )\n",
              "    (10): BottleNeck(\n",
              "      (layers): Sequential(\n",
              "        (0): Expansion(\n",
              "          (0): Conv2d(64, 192, kernel_size=(1, 1), stride=(1, 1), bias=False)\n",
              "          (1): BatchNorm2d(192, eps=1e-05, momentum=0.1, affine=True, track_running_stats=True)\n",
              "          (2): ReLU6(inplace=True)\n",
              "        )\n",
              "        (1): DepthwiseCNN(\n",
              "          (0): Conv2d(192, 192, kernel_size=(3, 3), stride=(1, 1), padding=(1, 1), groups=192, bias=False)\n",
              "          (1): BatchNorm2d(192, eps=1e-05, momentum=0.1, affine=True, track_running_stats=True)\n",
              "          (2): ReLU6(inplace=True)\n",
              "        )\n",
              "        (2): Projection(\n",
              "          (0): Conv2d(192, 64, kernel_size=(1, 1), stride=(1, 1), bias=False)\n",
              "          (1): BatchNorm2d(64, eps=1e-05, momentum=0.1, affine=True, track_running_stats=True)\n",
              "        )\n",
              "      )\n",
              "    )\n",
              "    (11): BottleNeck(\n",
              "      (layers): Sequential(\n",
              "        (0): Expansion(\n",
              "          (0): Conv2d(64, 192, kernel_size=(1, 1), stride=(1, 1), bias=False)\n",
              "          (1): BatchNorm2d(192, eps=1e-05, momentum=0.1, affine=True, track_running_stats=True)\n",
              "          (2): ReLU6(inplace=True)\n",
              "        )\n",
              "        (1): DepthwiseCNN(\n",
              "          (0): Conv2d(192, 192, kernel_size=(3, 3), stride=(1, 1), padding=(1, 1), groups=192, bias=False)\n",
              "          (1): BatchNorm2d(192, eps=1e-05, momentum=0.1, affine=True, track_running_stats=True)\n",
              "          (2): ReLU6(inplace=True)\n",
              "        )\n",
              "        (2): Projection(\n",
              "          (0): Conv2d(192, 96, kernel_size=(1, 1), stride=(1, 1), bias=False)\n",
              "          (1): BatchNorm2d(96, eps=1e-05, momentum=0.1, affine=True, track_running_stats=True)\n",
              "        )\n",
              "      )\n",
              "    )\n",
              "    (12): BottleNeck(\n",
              "      (layers): Sequential(\n",
              "        (0): Expansion(\n",
              "          (0): Conv2d(96, 288, kernel_size=(1, 1), stride=(1, 1), bias=False)\n",
              "          (1): BatchNorm2d(288, eps=1e-05, momentum=0.1, affine=True, track_running_stats=True)\n",
              "          (2): ReLU6(inplace=True)\n",
              "        )\n",
              "        (1): DepthwiseCNN(\n",
              "          (0): Conv2d(288, 288, kernel_size=(3, 3), stride=(1, 1), padding=(1, 1), groups=288, bias=False)\n",
              "          (1): BatchNorm2d(288, eps=1e-05, momentum=0.1, affine=True, track_running_stats=True)\n",
              "          (2): ReLU6(inplace=True)\n",
              "        )\n",
              "        (2): Projection(\n",
              "          (0): Conv2d(288, 96, kernel_size=(1, 1), stride=(1, 1), bias=False)\n",
              "          (1): BatchNorm2d(96, eps=1e-05, momentum=0.1, affine=True, track_running_stats=True)\n",
              "        )\n",
              "      )\n",
              "    )\n",
              "    (13): BottleNeck(\n",
              "      (layers): Sequential(\n",
              "        (0): Expansion(\n",
              "          (0): Conv2d(96, 288, kernel_size=(1, 1), stride=(1, 1), bias=False)\n",
              "          (1): BatchNorm2d(288, eps=1e-05, momentum=0.1, affine=True, track_running_stats=True)\n",
              "          (2): ReLU6(inplace=True)\n",
              "        )\n",
              "        (1): DepthwiseCNN(\n",
              "          (0): Conv2d(288, 288, kernel_size=(3, 3), stride=(1, 1), padding=(1, 1), groups=288, bias=False)\n",
              "          (1): BatchNorm2d(288, eps=1e-05, momentum=0.1, affine=True, track_running_stats=True)\n",
              "          (2): ReLU6(inplace=True)\n",
              "        )\n",
              "        (2): Projection(\n",
              "          (0): Conv2d(288, 96, kernel_size=(1, 1), stride=(1, 1), bias=False)\n",
              "          (1): BatchNorm2d(96, eps=1e-05, momentum=0.1, affine=True, track_running_stats=True)\n",
              "        )\n",
              "      )\n",
              "    )\n",
              "    (14): BottleNeck(\n",
              "      (layers): Sequential(\n",
              "        (0): Expansion(\n",
              "          (0): Conv2d(96, 288, kernel_size=(1, 1), stride=(1, 1), bias=False)\n",
              "          (1): BatchNorm2d(288, eps=1e-05, momentum=0.1, affine=True, track_running_stats=True)\n",
              "          (2): ReLU6(inplace=True)\n",
              "        )\n",
              "        (1): DepthwiseCNN(\n",
              "          (0): Conv2d(288, 288, kernel_size=(3, 3), stride=(1, 1), padding=(1, 1), groups=288, bias=False)\n",
              "          (1): BatchNorm2d(288, eps=1e-05, momentum=0.1, affine=True, track_running_stats=True)\n",
              "          (2): ReLU6(inplace=True)\n",
              "        )\n",
              "        (2): Projection(\n",
              "          (0): Conv2d(288, 160, kernel_size=(1, 1), stride=(1, 1), bias=False)\n",
              "          (1): BatchNorm2d(160, eps=1e-05, momentum=0.1, affine=True, track_running_stats=True)\n",
              "        )\n",
              "      )\n",
              "    )\n",
              "    (15): BottleNeck(\n",
              "      (layers): Sequential(\n",
              "        (0): Expansion(\n",
              "          (0): Conv2d(160, 480, kernel_size=(1, 1), stride=(1, 1), bias=False)\n",
              "          (1): BatchNorm2d(480, eps=1e-05, momentum=0.1, affine=True, track_running_stats=True)\n",
              "          (2): ReLU6(inplace=True)\n",
              "        )\n",
              "        (1): DepthwiseCNN(\n",
              "          (0): Conv2d(480, 480, kernel_size=(3, 3), stride=(1, 1), padding=(1, 1), groups=480, bias=False)\n",
              "          (1): BatchNorm2d(480, eps=1e-05, momentum=0.1, affine=True, track_running_stats=True)\n",
              "          (2): ReLU6(inplace=True)\n",
              "        )\n",
              "        (2): Projection(\n",
              "          (0): Conv2d(480, 160, kernel_size=(1, 1), stride=(1, 1), bias=False)\n",
              "          (1): BatchNorm2d(160, eps=1e-05, momentum=0.1, affine=True, track_running_stats=True)\n",
              "        )\n",
              "      )\n",
              "    )\n",
              "    (16): BottleNeck(\n",
              "      (layers): Sequential(\n",
              "        (0): Expansion(\n",
              "          (0): Conv2d(160, 480, kernel_size=(1, 1), stride=(1, 1), bias=False)\n",
              "          (1): BatchNorm2d(480, eps=1e-05, momentum=0.1, affine=True, track_running_stats=True)\n",
              "          (2): ReLU6(inplace=True)\n",
              "        )\n",
              "        (1): DepthwiseCNN(\n",
              "          (0): Conv2d(480, 480, kernel_size=(3, 3), stride=(1, 1), padding=(1, 1), groups=480, bias=False)\n",
              "          (1): BatchNorm2d(480, eps=1e-05, momentum=0.1, affine=True, track_running_stats=True)\n",
              "          (2): ReLU6(inplace=True)\n",
              "        )\n",
              "        (2): Projection(\n",
              "          (0): Conv2d(480, 160, kernel_size=(1, 1), stride=(1, 1), bias=False)\n",
              "          (1): BatchNorm2d(160, eps=1e-05, momentum=0.1, affine=True, track_running_stats=True)\n",
              "        )\n",
              "      )\n",
              "    )\n",
              "    (17): BottleNeck(\n",
              "      (layers): Sequential(\n",
              "        (0): Expansion(\n",
              "          (0): Conv2d(160, 480, kernel_size=(1, 1), stride=(1, 1), bias=False)\n",
              "          (1): BatchNorm2d(480, eps=1e-05, momentum=0.1, affine=True, track_running_stats=True)\n",
              "          (2): ReLU6(inplace=True)\n",
              "        )\n",
              "        (1): DepthwiseCNN(\n",
              "          (0): Conv2d(480, 480, kernel_size=(3, 3), stride=(1, 1), padding=(1, 1), groups=480, bias=False)\n",
              "          (1): BatchNorm2d(480, eps=1e-05, momentum=0.1, affine=True, track_running_stats=True)\n",
              "          (2): ReLU6(inplace=True)\n",
              "        )\n",
              "        (2): Projection(\n",
              "          (0): Conv2d(480, 320, kernel_size=(1, 1), stride=(1, 1), bias=False)\n",
              "          (1): BatchNorm2d(320, eps=1e-05, momentum=0.1, affine=True, track_running_stats=True)\n",
              "        )\n",
              "      )\n",
              "    )\n",
              "    (18): CNN(\n",
              "      (0): Conv2d(320, 1280, kernel_size=(3, 3), stride=(1, 1), padding=(1, 1), bias=False)\n",
              "      (1): BatchNorm2d(1280, eps=1e-05, momentum=0.1, affine=True, track_running_stats=True)\n",
              "      (2): ReLU6(inplace=True)\n",
              "    )\n",
              "    (19): AvgPool2d(kernel_size=8, stride=8, padding=0)\n",
              "    (20): Flatten()\n",
              "    (21): Linear(in_features=1280, out_features=1000, bias=True)\n",
              "    (22): BatchNorm1d(1000, eps=1e-05, momentum=0.1, affine=True, track_running_stats=True)\n",
              "    (23): ReLU(inplace=True)\n",
              "  )\n",
              "  (fc1): Linear(in_features=1000, out_features=2300, bias=True)\n",
              "  (fc2): Linear(in_features=1000, out_features=60, bias=True)\n",
              ")"
            ]
          },
          "metadata": {
            "tags": []
          },
          "execution_count": 14
        }
      ]
    },
    {
      "cell_type": "code",
      "metadata": {
        "id": "AjTwmbVhip8i",
        "colab_type": "code",
        "outputId": "0db51e8c-e409-4f64-c7b6-dbcc16628562",
        "colab": {
…
